Res/kan/Winning_KAN.pth (torch, 22713 bytes, 17 tensors)

node_bias_0 f4 [7]
0	0x00000000	0.0
1	0x00000000	0.0
2	0x00000000	0.0
3	0x00000000	0.0
4	0x00000000	0.0
5	0x00000000	0.0
6	0x00000000	0.0

node_scale_0 f4 [7]
0	0x3f800000	1.0
1	0x3f800000	1.0
2	0x3f800000	1.0
3	0x3f800000	1.0
4	0x3f800000	1.0
5	0x3f800000	1.0
6	0x3f800000	1.0

subnode_bias_0 f4 [7]
0	0x00000000	0.0
1	0x00000000	0.0
2	0x00000000	0.0
3	0x00000000	0.0
4	0x00000000	0.0
5	0x00000000	0.0
6	0x00000000	0.0

subnode_scale_0 f4 [7]
0	0x3f800000	1.0
1	0x3f800000	1.0
2	0x3f800000	1.0
3	0x3f800000	1.0
4	0x3f800000	1.0
5	0x3f800000	1.0
6	0x3f800000	1.0

act_fun.0.grid f4 [14, 27]
0	0xc06595a4	-3.5872583
1	0xc0554fcf	-3.3329961
2	0xc04509fa	-3.078734
3	0xc034c425	-2.8244717
4	0xc013320a	-2.2999291
5	0xbfe33fe3	-1.7753872
6	0xbf95b810	-1.1696796
7	0xbf10607e	-0.56397235
8	0xbea5a2dd	-0.32350817
9	0xbdaa12f8	-0.08304399
10	0x3c9f3f76	0.01943944
11	0x3df9b2b3	0.12192287
12	0x3e406423	0.18788199
13	0x3e81f776	0.2538411
14	0x3e9f9502	0.3116837
15	0x3ebd328d	0.3695263
16	0x3ece588d	0.40301934
17	0x3edf7e8d	0.43651238
18	0x3f05d3c9	0.52276284
19	0x3f1be84b	0.60901326
20	0x3f46c409	0.77642876
21	0x3f719fc8	0.9438443
22	0x3fcd1876	1.602309
23	0x4010b085	2.260774
24	0x4020f65a	2.515036
25	0x40313c2f	2.7692983
26	0x40418204	3.0235605
27	0xbff70b91	-1.9300405
28	0xbfda0a1f	-1.7034339
29	0xbfbd08ad	-1.4768273
30	0xbfa0073b	-1.2502207
31	0xbf978d95	-1.1840082
32	0xbf8f13ef	-1.1177958
33	0xbf833814	-1.0251489
34	0xbf6eb871	-0.93250185
35	0xbf48f3ed	-0.784972
36	0xbf232f69	-0.6374422
37	0xbedc4934	-0.430246
38	0xbe64672a	-0.22304979
39	0xbe09ea43	-0.1346827
40	0xbd3db578	-0.04631564
41	0x3da89def	0.082332484
42	0x3e580b4d	0.21098061
43	0x3e8b374b	0.27190623
44	0x3eaa68ef	0.33283183
45	0x3eca1e91	0.39476445
46	0x3ee9d433	0.45669708
47	0x3f4fa8e3	0.81117076
48	0x3f9533d8	1.1656446
49	0x400e5260	2.2237778
50	0x40520ad7	3.2819116
51	0x40608b90	3.5085182
52	0x406f0c49	3.7351248
53	0x407d8d02	3.9617314
54	0xc05f297d	-3.4869072
55	0xc0503b88	-3.2536335
56	0xc0414d93	-3.0203598
57	0xc0325f9e	-2.787086
58	0xbffd081d	-1.9768101
59	0xbf955101	-1.1665345
60	0xbf6cbbbf	-0.9247398
61	0xbf2ed57e	-0.68294513
62	0xbf0e5540	-0.5559883
63	0xbedbaa05	-0.42903152
64	0xbe9f0c14	-0.31063902
65	0xbe44dc45	-0.19224651
66	0xbda9315e	-0.08261369
67	0x3cdd572a	0.027019102
68	0x3e0226b4	0.12710077
69	0x3e68a282	0.22718242
70	0x3ee3f996	0.44526356
71	0x3f29d0f6	0.66334474
72	0x3f3df5d8	0.7420325
73	0x3f521aba	0.8207203
74	0x3f88e163	1.0693783
75	0x3fa8b569	1.3180362
76	0x3fcc9235	1.5982119
77	0x3ff06f01	1.8783876
78	0x40072575	2.1116612
79	0x4016136a	2.344935
80	0x4025015f	2.5782087
81	0xc0126c2e	-2.2878528
82	0xc006421e	-2.0977855
83	0xbff4301c	-1.9077182
84	0xbfdbdbfb	-1.7176508
85	0xbfb25fde	-1.3935506
86	0xbf88e3c2	-1.0694506
87	0xbf6ebf02	-0.93260205
88	0xbf4bb682	-0.7957536
89	0xbf37d148	-0.7180371
90	0xbf23ec0f	-0.6403207
91	0xbeed2c02	-0.46322638
92	0xbe927fe7	-0.28613207
93	0xbe564304	-0.20924002
94	0xbe07863c	-0.132348
95	0xbd782405	-0.060581226
96	0x3c374398	0.011185549
97	0x3ea218fe	0.31659693
98	0x3f1f3bf0	0.6220083
99	0x3f489325	0.78349525
100	0x3f71ea5a	0.9449822
101	0x3f981748	1.1882105
102	0x3fb73963	1.4314388
103	0x3fe0f7fc	1.7575679
104	0x40055b4b	2.083697
105	0x4011855b	2.2737644
106	0x401daf6b	2.4638317
107	0x4029d97b	2.653899
108	0xc037bb40	-2.8708038
109	0xc026335a	-2.5968843
110	0xc014ab74	-2.3229647
111	0xc003238e	-2.049045
112	0xbfd0757e	-1.6285856
113	0xbf9aa3e2	-1.2081263
114	0xbf7ca402	-0.98687756
115	0xbf440041	-0.7656289
116	0xbf36026c	-0.71097445
117	0xbf280496	-0.65632
118	0xbeef4378	-0.46731162
119	0xbe8e7dc3	-0.27830324
120	0xbe1138eb	-0.14181869
121	0xbbaeca68	-0.0053341873
122	0x3dccb98f	0.0999633
123	0x3e522fe2	0.20526078
124	0x3ea29f83	0.31762323
125	0x3edc2715	0.42998567
126	0x3f17a550	0.5923662
127	0x3f413715	0.75474674
128	0x3f92b421	1.1461221
129	0x3fc4ccb9	1.5374976
130	0x401ef062	2.4834218
131	0x405b7a6a	3.4293466
132	0x406d0250	3.7032661
133	0x407e8a36	3.9771857
134	0x4088090e	4.2511053
135	0xc0704ae3	-3.7545707
136	0xc061ab1e	-3.5260692
137	0xc0530b59	-3.2975676
138	0xc0446b94	-3.069066
139	0xc0124043	-2.2851722
140	0xbfc029e7	-1.5012788
141	0xbfa10d3e	-1.2582166
142	0xbf81f096	-1.0151546
143	0xbf5f1ab7	-0.8715014
144	0xbf3a5442	-0.7278482
145	0xbeee74f4	-0.46573603
146	0xbe5082c9	-0.2036239
147	0xbdff1e1c	-0.12456915
148	0xbd3a6d52	-0.045514412
149	0x3d8b5530	0.068033576
150	0x3e39f085	0.18158157
151	0x3ef66f4b	0.48131785
152	0x3f47f32a	0.78105414
153	0x3f670833	0.90246886
154	0x3f830e9e	1.0238836
155	0x3f9b412f	1.2129267
156	0x3fb373c1	1.40197
157	0x3fb9c9b5	1.4514681
158	0x3fc01fa8	1.5009661
159	0x3fdd5f32	1.7294676
160	0x3ffa9ebc	1.9579692
161	0x400bef23	2.1864707
162	0xc075ab09	-3.8385642
163	0xc0646d08	-3.5691547
164	0xc0532f07	-3.2997453
165	0xc041f106	-3.030336
166	0xc00267cf	-2.037586
167	0xbf85bd36	-1.0448368
168	0xbf723cfd	-0.9462431
169	0xbf58ff8f	-0.8476495
170	0xbf3e7f70	-0.74413204
171	0xbf23ff50	-0.6406145
172	0xbf08bab8	-0.5340991
173	0xbedaec3f	-0.42758366
174	0xbe92e427	-0.2868969
175	0xbe15b822	-0.14621022
176	0xbda9c5b4	-0.08289662
177	0xbca06c90	-0.019583017
178	0x3ddadc4f	0.10686552
179	0x3e6ee9e1	0.23331405
180	0x3ef61152	0.4806009
181	0x3f3a56da	0.72788775
182	0x3f9efd50	1.2421055
183	0x3fe0cf36	1.7563236
184	0x4003a750	2.057087
185	0x4016e706	2.3578506
186	0x40282507	2.62726
187	0x40396308	2.8966694
188	0x404aa109	3.1660788
189	0xc0851074	-4.1582584
190	0xc0783b82	-3.878632
191	0xc066561b	-3.5990055
192	0xc05470b4	-3.3193789
193	0xc0098d15	-2.149236
194	0xbf7aa5e3	-0.97909373
195	0xbf697fae	-0.9121045
196	0xbf58597a	-0.8451153
197	0xbf47522a	-0.7785975
198	0xbf364ada	-0.71207964
199	0xbf1cd03e	-0.6125525
200	0xbf0355a3	-0.51302546
201	0xbeb5bb2b	-0.3549436
202	0xbe499625	-0.19686182
203	0xbdb6542f	-0.089027755
204	0x3c9a0fb1	0.01880631
205	0x3e24ac15	0.16081269
206	0x3e9b0b1a	0.30281907
207	0x3f093b03	0.5360567
208	0x3f44f079	0.7692943
209	0x3f9ed196	1.240771
210	0x3fdb2af2	1.7122481
211	0x3fff10c9	1.9926997
212	0x40117b50	2.2731514
213	0x402360b7	2.552778
214	0x4035461e	2.8324046
215	0x40472b85	3.1120312
216	0xc02b030d	-2.6720612
217	0xc01c0cd1	-2.4382823
218	0xc00d1695	-2.2045033
219	0xbffc40b2	-1.9707243
220	0xbfcef108	-1.6167307
221	0xbfa1a160	-1.2627373
222	0xbf8cf6d6	-1.1012828
223	0xbf709898	-0.9398284
224	0xbf4a686a	-0.79065573
225	0xbf24383c	-0.64148307
226	0xbf1363cc	-0.5757415
227	0xbf028f5c	-0.51
228	0xbe91497f	-0.28376386
229	0xbd6ba248	-0.05752781
230	0x3dbd9857	0.09257572
231	0x3e7880e9	0.24267925
232	0x3ee93173	0.4554554
233	0x3f2b1139	0.66823155
234	0x3f3de66a	0.7417971
235	0x3f50bb9a	0.8153626
236	0x3f8cc37c	1.0997157
237	0x3fb1292b	1.3840688
238	0x4002d871	2.0444605
239	0x402d1c4e	2.7048526
240	0x403c128a	2.9386315
241	0x404b08c6	3.1724105
242	0x4059ff02	3.4061894
243	0xc055ab44	-3.3385782
244	0xc0446f5b	-3.0692966
245	0xc0333372	-2.800015
246	0xc021f789	-2.5307333
247	0xbffc400e	-1.9707048
248	0xbfb4910c	-1.4106765
249	0xbf799208	-0.9748845
250	0xbf0a01fe	-0.5390929
251	0xbedbb026	-0.42907828
252	0xbea35c4f	-0.31906363
253	0xbe69ff99	-0.22851409
254	0xbe0d4694	-0.13796455
255	0xbc9f97ce	-0.019481566

act_fun.0.coef f4 [14, 7, 23]
0	0xc12143df	-10.07907
1	0xc1274f02	-10.456789
2	0xc12492da	-10.285852
3	0xc1295408	-10.583015
4	0xc124a9f6	-10.291494
5	0xc12a6507	-10.649665
6	0xc12492de	-10.285856
7	0xc123391c	-10.201443
8	0xc12003d9	-10.000939
9	0xc121a7a3	-10.103427
10	0xc1214427	-10.079139
11	0xc11fd754	-9.99007
12	0xc12138a7	-10.076331
13	0xc11e780b	-9.904307
14	0xc119944c	-9.598705
15	0xc122eaf1	-10.182359
16	0xc11a509b	-9.644679
17	0xc11d68dd	-9.838101
18	0xc11cf22c	-9.809124
19	0xc1145074	-9.269642
20	0xc101d425	-8.114293
21	0xc1268511	-10.407487
22	0xc0af4ccd	-5.478125
23	0x40be765b	5.9519477
24	0x401d41ea	2.457148
25	0x3fa888a4	1.31667
26	0x4016f60d	2.3587677
27	0x3faf0a48	1.3675013
28	0x3f041d15	0.51606876
29	0xbf2c5919	-0.6732345
30	0xbf26630a	-0.6499487
31	0xbf5415d8	-0.8284583
32	0xbe17aa7d	-0.1481113
33	0xbe1cf532	-0.1532791
34	0xbf04ea12	-0.5191966
35	0xbfa65d5b	-1.299724
36	0xbfdd46ec	-1.7287269
37	0xbf835e4b	-1.0263151
38	0xbfb05b3b	-1.3777841
39	0xbfea04eb	-1.8282751
40	0xbfc26041	-1.5185624
41	0xc0256d03	-2.5847785
42	0xbff117d4	-1.8835397
43	0xc06a95d4	-3.6653948
44	0xc0d8e2ba	-6.7776766
45	0xc05b34d3	-3.4250991
46	0x3ff0b361	1.8804742
47	0x3fa125d7	1.2589673
48	0x3f0fbc4d	0.561467
49	0x400d4840	2.2075348
50	0x40137ad9	2.304373
51	0x3fe3177a	1.774154
52	0x4019f35e	2.405479
53	0x3fb1a363	1.3877987
54	0x3fd0116c	1.6255317
55	0x3fe70e75	1.8051287
56	0x400df156	2.217855
57	0x402babbf	2.6823575
58	0x400a3cad	2.1599534
59	0x3fdd03ba	1.7266762
60	0x3fd9af89	1.7006694
61	0x3fcdb6f4	1.6071458
62	0x4002471d	2.0355904
63	0x3f6c0604	0.9219668
64	0x3ff64ea6	1.9242752
65	0x401cdf4a	2.4511285
66	0x3fcd2ee1	1.6029931
67	0x402a5b4f	2.661823
68	0x3fc8546f	1.5650767
69	0xc054751d	-3.319648
70	0xbf2ae21d	-0.6675127
71	0xbf5b8601	-0.8575135
72	0xbf352fab	-0.7077586
73	0xbfe8925c	-1.8169665
74	0xbf9667c9	-1.1750423
75	0xbf72f0cc	-0.94898677
76	0xbf797454	-0.9744313
77	0xc00d4c36	-2.2077765
78	0xbfa366c9	-1.2765743
79	0xbf87b20c	-1.060121
80	0xbfbf4f39	-1.4946052
81	0xbf5f995e	-0.87343395
82	0xc0136c2c	-2.3034773
83	0xc00248bf	-2.03569
84	0xbfd9469c	-1.6974673
85	0xc017e0ed	-2.3731034
86	0xc02a35c8	-2.6595325
87	0xc0551ff6	-3.3300757
88	0xc032e196	-2.7950187
89	0xc05c9e71	-3.4471705
90	0xc0f6b96a	-7.7101336
91	0xc0876c41	-4.2319646
92	0x41521eba	13.132502
93	0x4146ff1d	12.4372835
94	0x412bd996	10.740622
95	0x410b4763	8.704928
96	0x40d9e9d8	6.8097954
97	0x40918d6c	4.5485134
98	0x3fe6f2ee	1.8042886
99	0x3ff10903	1.8830875
100	0x40430b9d	3.0475838
101	0x404b3742	3.1752477
102	0x3fecded2	1.8505499
103	0x3f93280b	1.1496595
104	0x3f83e6e9	1.0304843
105	0x3fceb344	1.6148458
106	0x4065f961	3.5933459
107	0x40d3fac8	6.624363
108	0x40e2f534	7.092432
109	0x40a09982	5.0187387
110	0x4096d222	4.713151
111	0x40973233	4.724878
112	0x3fc156e2	1.510464
113	0xc05582b2	-3.336102
114	0xbfd2d7f2	-1.6472151
115	0xbfdd2850	-1.7277927
116	0xc0c500bc	-6.1563396
117	0xc0ece096	-7.4024153
118	0xc0b48fd7	-5.6425586
119	0xc0fac699	-7.836743
120	0xc0df802a	-6.984395
121	0xc0cdd3a3	-6.4320846
122	0xc0f5791a	-7.671033
123	0xc0db47af	-6.8525004
124	0xc0d4e2e7	-6.652698
125	0xc0c29453	-6.080606
126	0xc0beb2c9	-5.9593244
127	0xc0d18d91	-6.548531
128	0xc0c721a0	-6.2228546
129	0xc0cc8a55	-6.391886
130	0xc0d7b8a7	-6.7412906
131	0xc0d11133	-6.5333495
132	0xc0d98fe2	-6.798814
133	0xc0abf408	-5.373539
134	0xc0c3915a	-6.111493
135	0xc0dc7d0d	-6.890265
136	0xc0f83d2b	-7.757467
137	0xc069ccde	-3.653129
138	0x40af92be	5.486663
139	0x407263f5	3.787351
140	0x405f73dc	3.4914465
141	0x4011bef1	2.2772791
142	0x404b20bf	3.1738737
143	0x4077084e	3.8598819
144	0x408b1f23	4.347551
145	0x40a0ce62	5.025193
146	0x40c14daa	6.0407305
147	0x40727b4f	3.7887762
148	0x409b5560	4.8541718
149	0x40d3e23b	6.621366
150	0x40937e07	4.609134
151	0x40a13101	5.037232
152	0x4074dd4e	3.8260074
153	0x40bd18e0	5.9092865
154	0x40b695dc	5.7057934
155	0x40a6783a	5.202176
156	0x40bdbb96	5.9291487
157	0x40cdbb14	6.4290867
158	0x40ad67ce	5.4189215
159	0x40e90a0f	7.282478
160	0x40660b49	3.5944388
161	0xc0956059	-4.668011
162	0xc0945ff6	-4.636714
163	0xc0911a50	-4.534462
164	0xc095b046	-4.6777678
165	0xc090d978	-4.5265465
166	0xc09addf9	-4.8395963
167	0xc09dc509	-4.930302
168	0xc08fe337	-4.496486
169	0xc08d7562	-4.420579
170	0xc0862726	-4.192279
171	0xc07c2deb	-3.9403026
172	0xc06bf043	-3.6865394
173	0xc0614140	-3.5196075
174	0xc062695a	-3.5376801
175	0xc057a48d	-3.3694184
176	0xc045c1fd	-3.089965
177	0xc0470000	-3.109375
178	0xc021952c	-2.5247297
179	0xc0250a9a	-2.578772
180	0xbeae6eda	-0.34068948
181	0x40327cf9	2.7888777
182	0x408e381a	4.4443483
183	0x40ab4a2a	5.352803
184	0x40bcf5db	5.9050117
185	0x4097901a	4.7363405
186	0x40625c34	3.5368776
187	0x405ce39e	3.4513927
188	0x404f85ad	3.242534
189	0x4015c2cd	2.3400147
190	0x3f84dcd8	1.0379896
191	0x3f344b32	0.7042724
192	0xbe6f2453	-0.233537
193	0xbec4fcee	-0.3847422
194	0x3b0d7539	0.0021584763
195	0xbf827986	-1.0193336
196	0xc005c381	-2.0900576
197	0xbfdf46ed	-1.744352
198	0xbfd74162	-1.6816828
199	0xbfc37464	-1.5269895
200	0xc0092211	-2.1427042
201	0xc00be855	-2.1860554
202	0xc0410761	-3.0160754
203	0xc07b8b6a	-3.9303842
204	0xc0471b0b	-3.1110256
205	0xc0209754	-2.5092363
206	0xbfe1da6b	-1.7644781
207	0x40678a6e	3.617824
208	0x40445c99	3.0681517
209	0x3fff175d	1.9929005
210	0x3fd0d7f2	1.6315901
211	0x3fe5d3c0	1.7955246
212	0x40289409	2.6340353
213	0x400860de	2.1309123
214	0x4029349c	2.643836
215	0x402bec18	2.686285
216	0x3fcee01f	1.6162146
217	0x3fdd4508	1.7286692
218	0x3fa03b84	1.2518163
219	0x3fd78b22	1.6839335
220	0x3fb211d8	1.3911695
221	0x3fcec56b	1.6153997
222	0x40109d77	2.259611
223	0x3fd277db	1.6442827
224	0x3fe51557	1.7897137
225	0x3fae0a58	1.3596907
226	0x3efb4e27	0.49083063
227	0xbda8baed	-0.08238778
228	0xbdb0fd64	-0.086420804
229	0xbe22191b	-0.1582989
230	0xc0364661	-2.8480456
231	0xc06f32e4	-3.737481
232	0xc0862e9b	-4.193189
233	0xc09c9482	-4.8931284
234	0xc09cdac3	-4.9017043
235	0xc0b743ba	-5.7270174
236	0xc0a1d2cd	-5.0569825
237	0xc093c578	-4.617855
238	0xc08d2fb1	-4.4120717
239	0xc062b1ed	-3.5421097
240	0xc04029ca	-3.0025506
241	0xc05deeae	-3.4676929
242	0xc0079a7d	-2.1188042
243	0xbfd9bf7a	-1.7011559
244	0xbfba4d13	-1.4554771
245	0xbfab32aa	-1.3374836
246	0xc001add9	-2.0262358
247	0xbf3ecdd5	-0.74532825
248	0x3dccd91d	0.100023486
249	0xbf415e1d	-0.7553423
250	0xc01aaf02	-2.4169316
251	0xc071f9ba	-3.780867
252	0xc08323b4	-4.0981083
253	0x412214ca	10.130075
254	0x410dd257	8.8638525
255	0x40e27ec8	7.077976

act_fun.0.scale_base f4 [14, 7]
0	0xc1266673	-10.400012
1	0xc0c3f2a9	-6.1233716
2	0xbe815d47	-0.25266477
3	0xc01df942	-2.4683385
4	0xbb8ea36d	-0.004352978
5	0xbbf62f41	-0.0075129573
6	0xc006d58f	-2.1067846
7	0xbf87884f	-1.0588473
8	0xc0a1a8cb	-5.0518546
9	0x3edbc8c5	0.42926612
10	0xbb98b451	-0.0046601673
11	0xbc28e376	-0.010308137
12	0xbdcde0dd	-0.10052655
13	0xc10a1d28	-8.632118
14	0xbc040993	-0.008058923
15	0xbfa9f7fc	-1.3278804
16	0x3da15dcb	0.07879218
17	0xc003da2f	-2.0601919
18	0xbb3aa9cc	-0.0028482554
19	0xbc6c1ecc	-0.014411639
20	0xc075c767	-3.8402956
21	0xc1549af7	-13.287833
22	0xbfb26d8d	-1.3939682
23	0x3abfe298	0.0014639674
24	0xbc0f169a	-0.008733416
25	0x3e0d8e30	0.13823771
26	0x3baac586	0.005211535
27	0x3bc2c447	0.0059438082
28	0x3a5fa05c	0.00085306703
29	0xc1097e62	-8.593355
30	0xbe88e596	-0.2673766
31	0xc11160b9	-9.086114
32	0xc128b26d	-10.543561
33	0xbcd1f482	-0.025629286
34	0xbb456630	-0.0030120723
35	0xbebb14fb	-0.36539444
36	0xbe6fb118	-0.234074
37	0xbf998ec9	-1.19967
38	0xc12b03d5	-10.688436
39	0xc1176c04	-9.463871
40	0xbd58543a	-0.0528147
41	0xbe80434f	-0.25051352
42	0x3b4a01a4	0.0030823732
43	0xbd87a9fc	-0.06624219
44	0xc01f2d30	-2.487133
45	0xbf9daaad	-1.2317711
46	0xbf42fd6a	-0.7616793
47	0x3c443dc9	0.011977621
48	0xbc821486	-0.015878927
49	0x3fd27d8e	1.6444566
50	0xbccb22b6	-0.024796825
51	0xbfdb43cb	-1.7130064
52	0xbd6170e7	-0.055039313
53	0xc10bc0ef	-8.734603
54	0xbd947919	-0.0724966
55	0x3cd6011c	0.026123576
56	0xbe563d8c	-0.20921916
57	0xc0a578cb	-5.170995
58	0x3cf3adca	0.029745955
59	0xc005db19	-2.0914977
60	0xc067d036	-3.6220832
61	0xc0054d98	-2.082861
62	0xc0331203	-2.7979743
63	0xbf4431e6	-0.7663864
64	0xc0c7b937	-6.241359
65	0xbd004404	-0.031314865
66	0x3fa82935	1.3137575
67	0xbb3fcfa4	-0.002926805
68	0xc080f758	-4.0301933
69	0xc10347a1	-8.204988
70	0x3f144f93	0.5793392
71	0x3e1edae8	0.15513194
72	0xbf156d92	-0.58370316
73	0xbe53829c	-0.20655292
74	0x3e18bc1a	0.14915505
75	0xbf432e94	-0.7624295
76	0xbf6a517a	-0.91530573
77	0xc06c7ac7	-3.6949937
78	0x3c61e613	0.013787764
79	0xbbe27aaa	-0.0069115954
80	0x3b454d73	0.0030105978
81	0x3a968358	0.0011483235
82	0xbc1884c4	-0.009308998
83	0xbf57cdec	-0.84298587
84	0xc047d4a5	-3.1223538
85	0xc0b6bb97	-5.710399
86	0xbc980f19	-0.018561887
87	0xc06849bc	-3.6295004
88	0xbc1d7eee	-0.009612782
89	0xbf3acda6	-0.72970045
90	0x3e1de095	0.15417702
91	0xbf7e0568	-0.99227
92	0x3cd3e7f2	0.025867436
93	0xbfdde039	-1.7334052
94	0xbd33da26	-0.043909214
95	0xc00ab07a	-2.1670213
96	0xc0c38e52	-6.111123
97	0xbc7a4a69	-0.01527653

act_fun.0.scale_sp f4 [14, 7]
0	0x412ab627	10.669471
1	0xbfb1e132	-1.3896849
2	0x3f8e0830	1.1096249
3	0xbfa0b05c	-1.2553821
4	0xb8e86903	-0.00011082182
5	0x3cd94841	0.026523711
6	0x3f2cf7a8	0.67565393
7	0x3f1d3d96	0.614221
8	0xbe8ac9ce	-0.2710709
9	0x3f81de52	1.0145972
10	0x3b77d0f6	0.003781376
11	0xba5f2b8c	-0.0008513264
12	0x3c521d26	0.012824332
13	0xc03a93f1	-2.9152796
14	0xba8d8165	-0.0010796009
15	0x3e88522b	0.2662519
16	0xbd13b570	-0.036061704
17	0xbf05cb27	-0.5226311
18	0xb9463670	-0.00018903031
19	0x3b344402	0.0027506356
20	0x4006dfa0	2.107399
21	0xc0ba354f	-5.8190074
22	0x3ef7dc1e	0.48410124
23	0xbc1d22b2	-0.009590792
24	0x3a86cd16	0.0010284509
25	0xbb27371f	-0.0025515032
26	0xb8bdce70	-9.050674e-05
27	0x3c0552d9	0.008137428
28	0xbaf7617e	-0.001887366
29	0xc09e630f	-4.949592
30	0x3f4de4f4	0.8042748
31	0x40966e92	4.7009974
32	0x4002e4ef	2.045223
33	0xbd963598	-0.07334441
34	0x3c9693f5	0.018381098
35	0x3ea909e7	0.33015367
36	0xbd3ea1e9	-0.04654113
37	0x3f2e0363	0.6797392
38	0x4013c872	2.3091092
39	0x40295981	2.646088
40	0x3d8b4263	0.06799772
41	0x3dd2b6fe	0.10288809
42	0xbb8e0ac8	-0.0043347813
43	0xbc56c81a	-0.013109231
44	0x3f79dfbf	0.97607034
45	0xc02b6c24	-2.6784754
46	0x3da98b94	0.082785755
47	0x3a960b38	0.0011447435
48	0xbbdb645b	-0.006695313
49	0xbf2f8681	-0.6856461
50	0xbbde7957	-0.006789367
51	0xbf95d0c9	-1.1704341
52	0xbd1a9d1e	-0.037747495
53	0x400e89dc	2.2271643
54	0x3bc2f247	0.005949292
55	0x3d167c33	0.03673954
56	0xbd36ddef	-0.044645246
57	0xc085e4ef	-4.184196
58	0x3c9515ce	0.018198874
59	0x3f7dcb90	0.99138737
60	0xbfa6e9e2	-1.3040125
61	0x40126fc9	2.2880728
62	0x3f0384e6	0.5137466
63	0xbf0d7b32	-0.55266106
64	0xbf0c106a	-0.54712546
65	0x3c4ecc5c	0.012621965
66	0x40749df2	3.8221402
67	0x39da5b06	0.00041648018
68	0x410c9132	8.785448
69	0x40d618bc	6.6905193
70	0x3e0efaf1	0.13962914
71	0xbe096b42	-0.13419822
72	0xbe4ab545	-0.19795711
73	0xbf370372	-0.7148963
74	0x3d3536ec	0.04424183
75	0x3fb96aeb	1.4485754
76	0x3ef47c88	0.4775126
77	0xc04faebc	-3.24504
78	0x3c17324e	0.009228302
79	0x3a5cd6c6	0.0008424338
80	0xbc2f74b8	-0.01070898
81	0x3c079d31	0.008277223
82	0xb9b19cf8	-0.00033877022
83	0x3f3b7fe0	0.73241997
84	0x3f4ab240	0.7917824
85	0xc03206a0	-2.7816544
86	0xbd5161a5	-0.05111851
87	0xbf829346	-1.0201194
88	0xb9954d1a	-0.0002847694
89	0x408b02ee	4.3441076
90	0xbdf48216	-0.119388744
91	0x3e50690a	0.20352569
92	0xbb50b0e0	-0.0031843707
93	0xbf1a0164	-0.6015837
94	0xbbf99f67	-0.007617879
95	0x3f31f399	0.69512326
96	0xc01b8ef7	-2.430601
97	0x3c975e09	0.018477457

act_fun.1.grid f4 [7, 27]
0	0xc395754f	-298.91647
1	0xc39009de	-288.0771
2	0xc38a9e6d	-277.2377
3	0xc38532fc	-266.39832
4	0xc37b5298	-251.32263
5	0xc36c3f37	-236.24693
6	0xc3651576	-229.08383
7	0xc35debb6	-221.92075
8	0xc3539e86	-211.61923
9	0xc3495156	-201.31772
10	0xc33f48b4	-191.284
11	0xc3354013	-181.25029
12	0xc32c050c	-172.01971
13	0xc322ca07	-162.78917
14	0xc31c9ec6	-156.62021
15	0xc3167385	-150.45125
16	0xc30a1bb8	-138.10828
17	0xc2fb87d7	-125.76531
18	0xc2e2d27b	-113.411095
19	0xc2ca1d1f	-101.05688
20	0xc2b5610f	-90.68957
21	0xc2a0a4fd	-80.32224
22	0xc281eec0	-64.96631
23	0xc2467103	-49.610363
24	0xc21b1578	-38.770966
25	0xc1df73da	-27.931568
26	0xc188bcc4	-17.09217
27	0xc364cd7c	-228.80267
28	0xc35b8b66	-219.54453
29	0xc3524950	-210.28638
30	0xc349073a	-201.02823
31	0xc32fef08	-175.93372
32	0xc316d6d6	-150.8392
33	0xc3073a85	-135.22859
34	0xc2ef3c67	-119.61797
35	0xc2e72458	-115.570984
36	0xc2df0c48	-111.52399
37	0xc2d594b3	-106.79043
38	0xc2cc1d1e	-102.05687
39	0xc2c47b01	-98.24024
40	0xc2bcd8e5	-94.42362
41	0xc2b33602	-89.605484
42	0xc2a9931e	-84.78734
43	0xc29f2985	-79.58109
44	0xc294bfec	-74.37485
45	0xc283dfe0	-65.937256
46	0xc265ffa7	-57.49966
47	0xc24cfce2	-51.246956
48	0xc233fa1c	-44.994247
49	0xc1f37039	-30.429796
50	0xc17dd86a	-15.865335
51	0xc0d36e1c	-6.607191
52	0x4029a938	2.6509533
53	0x413e8baa	11.909098
54	0xc247baec	-49.93254
55	0xc23aa307	-46.659206
56	0xc22d8b22	-43.38587
57	0xc220733d	-40.112537
58	0xc1d8635e	-27.04852
59	0xc15fc08d	-13.984509
60	0xc0b61f79	-5.691342
61	0x4026843c	2.601821
62	0x409e5ca8	4.9488106
63	0x40e97733	7.2958007
64	0x41074c54	8.456135
65	0x4119dd0e	9.616468
66	0x4126dcb7	10.428885
67	0x4133dc61	11.241303
68	0x413f8e6e	11.972273
69	0x414b407a	12.703241
70	0x415a62ca	13.649118
71	0x41698519	14.594995
72	0x417d6956	15.838217
73	0x4188a6ca	17.08144
74	0x418ffacc	17.99746
75	0x41974ece	18.913479
76	0x41b11217	22.133833
77	0x41cad560	25.354187
78	0x41e5052b	28.627523
79	0x41ff34f6	31.90086
80	0x420cb260	35.174194
81	0xc358ae9f	-216.68211
82	0xc3501278	-208.07214
83	0xc3477651	-199.46217
84	0xc33eda2a	-190.8522
85	0xc31896c4	-152.58893
86	0xc2e4a6c1	-114.32569
87	0xc2d9f277	-108.973564
88	0xc2cf3e2c	-103.62143
89	0xc2c85f3c	-100.186005
90	0xc2c1804b	-96.75057
91	0xc2b82252	-92.06703
92	0xc2aec45a	-87.3835
93	0xc2a80904	-84.01761
94	0xc2a14daf	-80.651726
95	0xc297b8d6	-75.86101
96	0xc28e23fd	-71.07029
97	0xc28851a4	-68.159454
98	0xc2827f4b	-65.24862
99	0xc27b338e	-62.800346
100	0xc2716886	-60.352074
101	0xc25523c0	-53.284912
102	0xc238def8	-46.217743
103	0xc201bdb6	-32.435265
104	0xc19538e4	-18.652779
105	0xc120af56	-10.042807
106	0xbfb76720	-1.4328346
107	0x40e5ab1c	7.1771374
108	0xc35773d7	-215.4525
109	0xc34e64cb	-206.39372
110	0xc34555bf	-197.33495
111	0xc33c46b3	-188.27617
112	0xc326601b	-166.37541
113	0xc3107984	-144.47467
114	0xc2fc6e0a	-126.21492
115	0xc2d7e90e	-107.955185
116	0xc2c949cc	-100.644135
117	0xc2baaa8a	-93.333084
118	0xc2b0504e	-88.156845
119	0xc2a5f611	-82.9806
120	0xc29ab297	-77.34881
121	0xc28f6f1e	-71.717026
122	0xc2869bb0	-67.30408
123	0xc27b9086	-62.891136
124	0xc26ac354	-58.69075
125	0xc259f621	-54.49036
126	0xc23fa0b4	-47.906937
127	0xc2254b47	-41.323513
128	0xc20b4e42	-34.826424
129	0xc1e2a276	-28.329327
130	0xc18db845	-17.714975
131	0xc0e3383e	-7.1006155
132	0x3ffaa510	1.9581623
133	0x41304563	11.01694
134	0x41a09b12	20.075718
135	0xc470a2e4	-962.54517
136	0xc467483f	-925.12885
137	0xc45ded9a	-887.7125
138	0xc45492f5	-850.2962
139	0xc43248b6	-713.1361
140	0xc40ffe79	-575.97614
141	0xc405e51d	-535.5799
142	0xc3f79782	-495.18365
143	0xc3ef02c8	-478.02173
144	0xc3e66e0e	-460.8598
145	0xc3d9d52a	-435.66534
146	0xc3cd3c45	-410.47086
147	0xc3c6c0d5	-397.5065
148	0xc3c04565	-384.54214
149	0xc3bc32dc	-376.39734
150	0xc3b82054	-368.25256
151	0xc3b1c528	-355.54028
152	0xc3ab69fc	-342.828
153	0xc3a08eca	-321.11554
154	0xc395b399	-299.4031
155	0xc376b770	-246.71655
156	0xc34207aa	-194.02994
157	0xc3140003	-148.00005
158	0xc2cbf0b2	-101.97011
159	0xc2811b8c	-64.5538
160	0xc1d91998	-27.137497
161	0x41247600	10.278809
162	0xc35e073b	-222.02824
163	0xc3547e0a	-212.49234
164	0xc34af4d9	-202.95644
165	0xc3416ba8	-193.42053
166	0xc331e89b	-177.90862
167	0xc322658e	-162.3967
168	0xc3150fbd	-149.06148
169	0xc307b9ec	-135.72626
170	0xc2fd9a25	-126.80106
171	0xc2ebc072	-117.87587
172	0xc2cff854	-103.985016
173	0xc2b43036	-90.09416
174	0xc2a42c9a	-82.08711
175	0xc2942900	-74.08008
176	0xc28a5b5c	-69.17844
177	0xc2808db7	-64.27679
178	0xc27275c2	-60.614998
179	0xc263d016	-56.95321
180	0xc2503060	-52.04724
181	0xc23c90aa	-47.141273
182	0xc21d3808	-39.304718
183	0xc1fbbec7	-31.468153
184	0xc188aeb1	-17.085299
185	0xc02cf4ad	-2.7024338
186	0x40daabcc	6.8334713
187	0x4182f47c	16.369377
188	0x41cf3e04	25.905281

act_fun.1.coef f4 [7, 1, 23]
0	0x3f8d68b0	1.1047573
1	0x3f5d103c	0.86352897
2	0x3f0802bb	0.53129166
3	0x3e8514b7	0.25992367
4	0x3dcb26aa	0.09919484
5	0x3e9e90dc	0.30969894
6	0x3faad26c	1.3345466
7	0x403940bc	2.894576
8	0x40905165	4.509936
9	0x40b81f71	5.753838
10	0x409e276f	4.9423137
11	0x404cff03	3.2030647
12	0x4000dc47	2.0134447
13	0x400407bf	2.0629728
14	0xbfee0bed	-1.859739
15	0xc0ba6741	-5.825104
16	0xbfe9da1c	-1.8269687
17	0x3d837d90	0.064204335
18	0xbfe4f038	-1.7885809
19	0xc099947a	-4.7993746
20	0xc0a57ec1	-5.171723
21	0x41303bd1	11.014604
22	0x423f42b0	47.815125
23	0x408a812a	4.328267
24	0xbff93b6e	-1.9471262
25	0xc0189dbc	-2.3846273
26	0x403d9d5d	2.9627297
27	0x4093ead1	4.622414
28	0x40529ec7	3.290941
29	0x40070d24	2.110177
30	0x3fa3130d	1.2740189
31	0x3ffac808	1.9592295
32	0x401d679d	2.459449
33	0x3fc830e2	1.5639918
34	0xbeba0a34	-0.3633591
35	0x3f1a2f31	0.6022826
36	0xbf8d34d0	-1.1031742
37	0xbf135554	-0.57552075
38	0x402bf682	2.6869206
39	0x4092439b	4.5707526
40	0x40174267	2.3634279
41	0xbd72ef3b	-0.05931018
42	0x3fb15e31	1.385687
43	0xbf352804	-0.70764184
44	0x3f56a546	0.8384594
45	0xbf0556d1	-0.52085596
46	0xc0de989a	-6.956128
47	0xc1028ba3	-8.159091
48	0xbff5da51	-1.920725
49	0xc07bbb50	-3.9333076
50	0x3ee9de3e	0.4567737
51	0xc144c977	-12.299186
52	0xc0caa87f	-6.3330684
53	0xc0c97a20	-6.296158
54	0xc0240961	-2.5630724
55	0xc07fa61e	-3.994514
56	0xc087d8ea	-4.245229
57	0xbf4ef50c	-0.8084266
58	0xc067fa84	-3.6246653
59	0xbf845c0a	-1.0340588
60	0xbf46cc67	-0.77655643
61	0xbfe9f56c	-1.8278022
62	0x407026b8	3.7523632
63	0x3f93759f	1.152027
64	0x3f14a0f9	0.58058125
65	0x403135cd	2.7689087
66	0x40654ae0	3.582695
67	0x4080ab95	4.020945
68	0x3f2a4aa8	0.66520166
69	0xbff3701c	-1.9018588
70	0xc095d697	-4.682445
71	0xc0434e95	-3.0516713
72	0x3fcbfb21	1.5936013
73	0x402c5a7a	2.6930223
74	0x405eb7f6	3.479978
75	0x408c6c76	4.38824
76	0x40b5492b	5.6651816
77	0x40cd2cd4	6.411722
78	0x40e812a6	7.2522764
79	0x40880330	4.250389
80	0x4045cd88	3.0906696
81	0x402276ec	2.5385084
82	0x4099dd3c	4.808256
83	0x3f189e0e	0.5961617
84	0x406ae975	3.670499
85	0x3f9aa698	1.208209
86	0x4062f065	3.5459225
87	0x403dff91	2.9687235
88	0x4060af7b	3.5107105
89	0x409771d0	4.732643
90	0x3fec6ff2	1.8471663
91	0xc004eafc	-2.0768423
92	0x3bdd2e40	0.006749898
93	0x401886f8	2.3832378
94	0xbf04b6c8	-0.518414
95	0x3ec3aad5	0.38216272
96	0x3fa39f01	1.2782899
97	0xbdad7abb	-0.084706746
98	0x3fe42ee0	1.7826805
99	0xc004a52e	-2.0725818
100	0xbf918a14	-1.1370263
101	0xbf07db72	-0.5306922
102	0x3f2e5e30	0.6811247
103	0x3e34e53a	0.17665568
104	0xbe57e229	-0.21082367
105	0xbf1a68fc	-0.60316443
106	0xbf523a9a	-0.8212067
107	0xbed4cd39	-0.41562822
108	0x3f94bad4	1.1619515
109	0x3e7261bc	0.23670095
110	0xbec25fa9	-0.37963608
111	0xbf644118	-0.89161825
112	0x4043f030	3.061535
113	0xbe952c6b	-0.2913545
114	0x3c8c46af	0.017123548
115	0xbff427a9	-1.9074603
116	0xbfc85cd2	-1.5653327
117	0x40408bb8	3.0085278
118	0x40c5d261	6.181931
119	0x409417f3	4.6279235
120	0x40840e39	4.126736
121	0x3f400d8a	0.7502066
122	0x401199cd	2.2750123
123	0x40435b47	3.0524461
124	0x40484597	3.1292474
125	0x401b9a9d	2.4313118
126	0x404a5788	3.1615925
127	0x40616900	3.5220337
128	0x4014605f	2.318382
129	0x406014b6	3.501264
130	0x402e5c84	2.7243967
131	0x3feb6434	1.8389955
132	0x40215c1f	2.5212476
133	0x405d0b46	3.453813
134	0x3f49674c	0.78673244
135	0x3fe72a2e	1.8059747
136	0x4055ccac	3.3406172
137	0xc07af4d9	-3.9211943
138	0xc0c2c5ad	-6.0866303
139	0xbee3d7d0	-0.4450059
140	0x40417c9a	3.02323
141	0x4097b866	4.7412596
142	0x40c37eb6	6.1092176
143	0x40ac0eec	5.3768215
144	0x40781501	3.876282
145	0x40af7770	5.48333
146	0x40c70383	6.2191787
147	0x404dfc79	3.2185347
148	0x40312015	2.7675831
149	0x400cd29e	2.200355
150	0x4081f119	4.060681
151	0x40afa06e	5.4883337
152	0x3fc07b27	1.5037583
153	0x40a39535	5.1119637
154	0xbc8b490b	-0.017002603
155	0xbf9d314f	-1.2280673
156	0xbe963c42	-0.29342848
157	0xbfdc52df	-1.721279
158	0x405b410d	3.4258454
159	0x4108b6d3	8.544635
160	0x4108ab6d	8.541852

act_fun.1.mask f4 [7, 1]
0	0x3f800000	1.0
1	0x3f800000	1.0
2	0x3f800000	1.0
3	0x3f800000	1.0
4	0x00000000	0.0
5	0x3f800000	1.0
6	0x3f800000	1.0

act_fun.1.scale_base f4 [7, 1]
0	0xbf15d477	-0.5852732
1	0xc09958ac	-4.792074
2	0x3db46ff6	0.08810417
3	0x40146ea5	2.3192532
4	0xc0829e31	-4.0818105
5	0x3f1d9f40	0.6157112
6	0xbffc30d6	-1.9702404

act_fun.1.scale_sp f4 [7, 1]
0	0xbf4d2460	-0.8013363
1	0x3e4f4caf	0.20244096
2	0xbe710150	-0.23535657
3	0x3eef0e60	0.46690655
4	0xbc6bb46f	-0.01438628
5	0x3f316b03	0.6930391
6	0xbe9e4ed5	-0.3091952

symbolic_fun.0.mask f4 [7, 14]
0	0x00000000	0.0
1	0x00000000	0.0
2	0x00000000	0.0
3	0x00000000	0.0
4	0x00000000	0.0
5	0x00000000	0.0
6	0x00000000	0.0
7	0x00000000	0.0
8	0x00000000	0.0
9	0x00000000	0.0
10	0x00000000	0.0
11	0x00000000	0.0
12	0x00000000	0.0
13	0x00000000	0.0
14	0x00000000	0.0
15	0x00000000	0.0
16	0x00000000	0.0
17	0x00000000	0.0
18	0x00000000	0.0
19	0x00000000	0.0
20	0x00000000	0.0
21	0x00000000	0.0
22	0x00000000	0.0
23	0x00000000	0.0
24	0x00000000	0.0
25	0x00000000	0.0
26	0x00000000	0.0
27	0x00000000	0.0
28	0x00000000	0.0
29	0x00000000	0.0
30	0x00000000	0.0
31	0x00000000	0.0
32	0x00000000	0.0
33	0x00000000	0.0
34	0x00000000	0.0
35	0x00000000	0.0
36	0x00000000	0.0
37	0x00000000	0.0
38	0x00000000	0.0
39	0x00000000	0.0
40	0x00000000	0.0
41	0x00000000	0.0
42	0x00000000	0.0
43	0x00000000	0.0
44	0x00000000	0.0
45	0x00000000	0.0
46	0x00000000	0.0
47	0x00000000	0.0
48	0x00000000	0.0
49	0x00000000	0.0
50	0x00000000	0.0
51	0x00000000	0.0
52	0x00000000	0.0
53	0x00000000	0.0
54	0x00000000	0.0
55	0x00000000	0.0
56	0x00000000	0.0
57	0x00000000	0.0
58	0x00000000	0.0
59	0x00000000	0.0
60	0x00000000	0.0
61	0x00000000	0.0
62	0x00000000	0.0
63	0x00000000	0.0
64	0x00000000	0.0
65	0x00000000	0.0
66	0x00000000	0.0
67	0x00000000	0.0
68	0x00000000	0.0
69	0x00000000	0.0
70	0x00000000	0.0
71	0x00000000	0.0
72	0x00000000	0.0
73	0x00000000	0.0
74	0x00000000	0.0
75	0x00000000	0.0
76	0x00000000	0.0
77	0x00000000	0.0
78	0x00000000	0.0
79	0x00000000	0.0
80	0x00000000	0.0
81	0x00000000	0.0
82	0x00000000	0.0
83	0x00000000	0.0
84	0x00000000	0.0
85	0x00000000	0.0
86	0x00000000	0.0
87	0x00000000	0.0
88	0x00000000	0.0
89	0x00000000	0.0
90	0x00000000	0.0
91	0x00000000	0.0
92	0x00000000	0.0
93	0x00000000	0.0
94	0x00000000	0.0
95	0x00000000	0.0
96	0x00000000	0.0
97	0x00000000	0.0

symbolic_fun.0.affine f4 [7, 14, 4]
0	0x00000000	0.0
1	0x00000000	0.0
2	0x00000000	0.0
3	0x00000000	0.0
4	0x00000000	0.0
5	0x00000000	0.0
6	0x00000000	0.0
7	0x00000000	0.0
8	0x00000000	0.0
9	0x00000000	0.0
10	0x00000000	0.0
11	0x00000000	0.0
12	0x00000000	0.0
13	0x00000000	0.0
14	0x00000000	0.0
15	0x00000000	0.0
16	0x00000000	0.0
17	0x00000000	0.0
18	0x00000000	0.0
19	0x00000000	0.0
20	0x00000000	0.0
21	0x00000000	0.0
22	0x00000000	0.0
23	0x00000000	0.0
24	0x00000000	0.0
25	0x00000000	0.0
26	0x00000000	0.0
27	0x00000000	0.0
28	0x00000000	0.0
29	0x00000000	0.0
30	0x00000000	0.0
31	0x00000000	0.0
32	0x00000000	0.0
33	0x00000000	0.0
34	0x00000000	0.0
35	0x00000000	0.0
36	0x00000000	0.0
37	0x00000000	0.0
38	0x00000000	0.0
39	0x00000000	0.0
40	0x00000000	0.0
41	0x00000000	0.0
42	0x00000000	0.0
43	0x00000000	0.0
44	0x00000000	0.0
45	0x00000000	0.0
46	0x00000000	0.0
47	0x00000000	0.0
48	0x00000000	0.0
49	0x00000000	0.0
50	0x00000000	0.0
51	0x00000000	0.0
52	0x00000000	0.0
53	0x00000000	0.0
54	0x00000000	0.0
55	0x00000000	0.0
56	0x00000000	0.0
57	0x00000000	0.0
58	0x00000000	0.0
59	0x00000000	0.0
60	0x00000000	0.0
61	0x00000000	0.0
62	0x00000000	0.0
63	0x00000000	0.0
64	0x00000000	0.0
65	0x00000000	0.0
66	0x00000000	0.0
67	0x00000000	0.0
68	0x00000000	0.0
69	0x00000000	0.0
70	0x00000000	0.0
71	0x00000000	0.0
72	0x00000000	0.0
73	0x00000000	0.0
74	0x00000000	0.0
75	0x00000000	0.0
76	0x00000000	0.0
77	0x00000000	0.0
78	0x00000000	0.0
79	0x00000000	0.0
80	0x00000000	0.0
81	0x00000000	0.0
82	0x00000000	0.0
83	0x00000000	0.0
84	0x00000000	0.0
85	0x00000000	0.0
86	0x00000000	0.0
87	0x00000000	0.0
88	0x00000000	0.0
89	0x00000000	0.0
90	0x00000000	0.0
91	0x00000000	0.0
92	0x00000000	0.0
93	0x00000000	0.0
94	0x00000000	0.0
95	0x00000000	0.0
96	0x00000000	0.0
97	0x00000000	0.0
98	0x00000000	0.0
99	0x00000000	0.0
100	0x00000000	0.0
101	0x00000000	0.0
102	0x00000000	0.0
103	0x00000000	0.0
104	0x00000000	0.0
105	0x00000000	0.0
106	0x00000000	0.0
107	0x00000000	0.0
108	0x00000000	0.0
109	0x00000000	0.0
110	0x00000000	0.0
111	0x00000000	0.0
112	0x00000000	0.0
113	0x00000000	0.0
114	0x00000000	0.0
115	0x00000000	0.0
116	0x00000000	0.0
117	0x00000000	0.0
118	0x00000000	0.0
119	0x00000000	0.0
120	0x00000000	0.0
121	0x00000000	0.0
122	0x00000000	0.0
123	0x00000000	0.0
124	0x00000000	0.0
125	0x00000000	0.0
126	0x00000000	0.0
127	0x00000000	0.0
128	0x00000000	0.0
129	0x00000000	0.0
130	0x00000000	0.0
131	0x00000000	0.0
132	0x00000000	0.0
133	0x00000000	0.0
134	0x00000000	0.0
135	0x00000000	0.0
136	0x00000000	0.0
137	0x00000000	0.0
138	0x00000000	0.0
139	0x00000000	0.0
140	0x00000000	0.0
141	0x00000000	0.0
142	0x00000000	0.0
143	0x00000000	0.0
144	0x00000000	0.0
145	0x00000000	0.0
146	0x00000000	0.0
147	0x00000000	0.0
148	0x00000000	0.0
149	0x00000000	0.0
150	0x00000000	0.0
151	0x00000000	0.0
152	0x00000000	0.0
153	0x00000000	0.0
154	0x00000000	0.0
155	0x00000000	0.0
156	0x00000000	0.0
157	0x00000000	0.0
158	0x00000000	0.0
159	0x00000000	0.0
160	0x00000000	0.0
161	0x00000000	0.0
162	0x00000000	0.0
163	0x00000000	0.0
164	0x00000000	0.0
165	0x00000000	0.0
166	0x00000000	0.0
167	0x00000000	0.0
168	0x00000000	0.0
169	0x00000000	0.0
170	0x00000000	0.0
171	0x00000000	0.0
172	0x00000000	0.0
173	0x00000000	0.0
174	0x00000000	0.0
175	0x00000000	0.0
176	0x00000000	0.0
177	0x00000000	0.0
178	0x00000000	0.0
179	0x00000000	0.0
180	0x00000000	0.0
181	0x00000000	0.0
182	0x00000000	0.0
183	0x00000000	0.0
184	0x00000000	0.0
185	0x00000000	0.0
186	0x00000000	0.0
187	0x00000000	0.0
188	0x00000000	0.0
189	0x00000000	0.0
190	0x00000000	0.0
191	0x00000000	0.0
192	0x00000000	0.0
193	0x00000000	0.0
194	0x00000000	0.0
195	0x00000000	0.0
196	0x00000000	0.0
197	0x00000000	0.0
198	0x00000000	0.0
199	0x00000000	0.0
200	0x00000000	0.0
201	0x00000000	0.0
202	0x00000000	0.0
203	0x00000000	0.0
204	0x00000000	0.0
205	0x00000000	0.0
206	0x00000000	0.0
207	0x00000000	0.0
208	0x00000000	0.0
209	0x00000000	0.0
210	0x00000000	0.0
211	0x00000000	0.0
212	0x00000000	0.0
213	0x00000000	0.0
214	0x00000000	0.0
215	0x00000000	0.0
216	0x00000000	0.0
217	0x00000000	0.0
218	0x00000000	0.0
219	0x00000000	0.0
220	0x00000000	0.0
221	0x00000000	0.0
222	0x00000000	0.0
223	0x00000000	0.0
224	0x00000000	0.0
225	0x00000000	0.0
226	0x00000000	0.0
227	0x00000000	0.0
228	0x00000000	0.0
229	0x00000000	0.0
230	0x00000000	0.0
231	0x00000000	0.0
232	0x00000000	0.0
233	0x00000000	0.0
234	0x00000000	0.0
235	0x00000000	0.0
236	0x00000000	0.0
237	0x00000000	0.0
238	0x00000000	0.0
239	0x00000000	0.0
240	0x00000000	0.0
241	0x00000000	0.0
242	0x00000000	0.0
243	0x00000000	0.0
244	0x00000000	0.0
245	0x00000000	0.0
246	0x00000000	0.0
247	0x00000000	0.0
248	0x00000000	0.0
249	0x00000000	0.0
250	0x00000000	0.0
251	0x00000000	0.0
252	0x00000000	0.0
253	0x00000000	0.0
254	0x00000000	0.0
255	0x00000000	0.0

symbolic_fun.1.mask f4 [1, 7]
0	0x00000000	0.0
1	0x00000000	0.0
2	0x00000000	0.0
3	0x00000000	0.0
4	0x00000000	0.0
5	0x00000000	0.0
6	0x00000000	0.0

symbolic_fun.1.affine f4 [1, 7, 4]
0	0x00000000	0.0
1	0x00000000	0.0
2	0x00000000	0.0
3	0x00000000	0.0
4	0x00000000	0.0
5	0x00000000	0.0
6	0x00000000	0.0
7	0x00000000	0.0
8	0x00000000	0.0
9	0x00000000	0.0
10	0x00000000	0.0
11	0x00000000	0.0
12	0x00000000	0.0
13	0x00000000	0.0
14	0x00000000	0.0
15	0x00000000	0.0
16	0x00000000	0.0
17	0x00000000	0.0
18	0x00000000	0.0
19	0x00000000	0.0
20	0x00000000	0.0
21	0x00000000	0.0
22	0x00000000	0.0
23	0x00000000	0.0
24	0x00000000	0.0
25	0x00000000	0.0
26	0x00000000	0.0
27	0x00000000	0.0
